…
        "                                  tf.keras.layers.Dense(3,activation='softmax',kernel_initializer='he_uniform')\n",
        "                                  ])\n",
        "model.summary()"
      ],
      "execution_count": 114,
      "outputs": [
        {
          "output_type": "stream",
          "text": [
            "Model: \"sequential\"\n",
            "_________________________________________________________________\n",
            "Layer (type)                 Output Shape              Param #   \n",
            "=================================================================\n",
            "embedding (Embedding)        (None, 32, 50)            600050    \n",
            "_________________________________________________________________\n",
            "dropout (Dropout)            (None, 32, 50)            0         \n",
            "_________________________________________________________________\n",
            "conv1d (Conv1D)              (None, 28, 128)           32128     \n",
            "_________________________________________________________________\n",
            "batch_normalization (BatchNo (None, 28, 128)           512       \n",
            "_________________________________________________________________\n",
            "max_pooling1d (MaxPooling1D) (None, 14, 128)           0         \n",
            "_________________________________________________________________\n",
            "conv1d_1 (Conv1D)            (None, 12, 64)            24640     \n",
            "_________________________________________________________________\n",
            "batch_normalization_1 (Batch (None, 12, 64)            256       \n",
            "_________________________________________________________________\n",
            "max_pooling1d_1 (MaxPooling1 (None, 6, 64)             0         \n",
            "_________________________________________________________________\n",
            "conv1d_2 (Conv1D)            (None, 6, 64)             4160      \n",
            "_________________________________________________________________\n",
            "batch_normalization_2 (Batch (None, 6, 64)             256       \n",
            "_________________________________________________________________\n",
            "max_pooling1d_2 (MaxPooling1 (None, 3, 64)             0         \n",
            "_________________________________________________________________\n",
            "bidirectional (Bidirectional (None, 3, 128)            66048     \n",
            "_________________________________________________________________\n",
            "layer_normalization (LayerNo (None, 3, 128)            256       \n",
            "_________________________________________________________________\n",
            "bidirectional_1 (Bidirection (None, 3, 128)            98816     \n",
            "_________________________________________________________________\n",
            "layer_normalization_1 (Layer (None, 3, 128)            256       \n",
            "_________________________________________________________________\n",
            "bidirectional_2 (Bidirection (None, 64)                41216     \n",
            "_________________________________________________________________\n",
            "layer_normalization_2 (Layer (None, 64)                128       \n",
            "_________________________________________________________________\n",
            "dense (Dense)                (None, 128)               8320      \n",
            "_________________________________________________________________\n",
            "batch_normalization_3 (Batch (None, 128)               512       \n",
            "_________________________________________________________________\n",
            "dense_1 (Dense)              (None, 256)               33024     \n",
            "_________________________________________________________________\n",
            "batch_normalization_4 (Batch (None, 256)               1024      \n",
            "_________________________________________________________________\n",
            "dense_2 (Dense)              (None, 3)                 771       \n",
            "=================================================================\n",
            "Total params: 912,373\n",
            "Trainable params: 911,093\n",
            "Non-trainable params: 1,280\n",
            "_________________________________________________________________\n"
          ],
          "name": "stdout"
        }
      ]
    },
    {
      "cell_type": "code",
…
